Files already downloaded and verified
Files already downloaded and verified
model
VAN(
  (patch_embed1): OverlapPatchEmbed(
    (proj): Conv2d(3, 32, kernel_size=(7, 7), stride=(4, 4), padding=(3, 3))
    (norm): BatchNorm2d(32, eps=1e-05, momentum=0.1, affine=True, track_running_stats=True)
  )
  (block1): ModuleList(
    (0): Block(
      (norm1): BatchNorm2d(32, eps=1e-05, momentum=0.1, affine=True, track_running_stats=True)
      (attn): Attention(
        (proj_1): Conv2d(32, 32, kernel_size=(1, 1), stride=(1, 1))
        (activation): GELU(approximate='none')
        (spatial_gating_unit): LKA(
          (conv0): Conv2d(32, 32, kernel_size=(5, 5), stride=(1, 1), padding=(2, 2), groups=32)
          (conv_spatial): MultiScaleBranch(
            (conv3x3): Conv2d(32, 32, kernel_size=(3, 3), stride=(1, 1), padding=(1, 1))
            (conv5x5): Conv2d(32, 32, kernel_size=(5, 5), stride=(1, 1), padding=(2, 2))
            (conv7x7): Conv2d(32, 32, kernel_size=(7, 7), stride=(1, 1), padding=(3, 3))
          )
          (conv1): Conv2d(96, 32, kernel_size=(1, 1), stride=(1, 1))
        )
        (proj_2): Conv2d(32, 32, kernel_size=(1, 1), stride=(1, 1))
      )
      (drop_path): Identity()
      (norm2): BatchNorm2d(32, eps=1e-05, momentum=0.1, affine=True, track_running_stats=True)
      (mlp): Mlp(
        (fc1): Conv2d(32, 256, kernel_size=(1, 1), stride=(1, 1))
        (dwconv): DWConv(
          (dwconv): Conv2d(256, 256, kernel_size=(3, 3), stride=(1, 1), padding=(1, 1), groups=256)
        )
        (act): GELU(approximate='none')
        (fc2): Conv2d(256, 32, kernel_size=(1, 1), stride=(1, 1))
        (drop): Dropout(p=0.0, inplace=False)
      )
    )
    (1): Block(
      (norm1): BatchNorm2d(32, eps=1e-05, momentum=0.1, affine=True, track_running_stats=True)
      (attn): Attention(
        (proj_1): Conv2d(32, 32, kernel_size=(1, 1), stride=(1, 1))
        (activation): GELU(approximate='none')
        (spatial_gating_unit): LKA(
          (conv0): Conv2d(32, 32, kernel_size=(5, 5), stride=(1, 1), padding=(2, 2), groups=32)
          (conv_spatial): MultiScaleBranch(
            (conv3x3): Conv2d(32, 32, kernel_size=(3, 3), stride=(1, 1), padding=(1, 1))
            (conv5x5): Conv2d(32, 32, kernel_size=(5, 5), stride=(1, 1), padding=(2, 2))
            (conv7x7): Conv2d(32, 32, kernel_size=(7, 7), stride=(1, 1), padding=(3, 3))
          )
          (conv1): Conv2d(96, 32, kernel_size=(1, 1), stride=(1, 1))
        )
        (proj_2): Conv2d(32, 32, kernel_size=(1, 1), stride=(1, 1))
      )
      (drop_path): Identity()
      (norm2): BatchNorm2d(32, eps=1e-05, momentum=0.1, affine=True, track_running_stats=True)
      (mlp): Mlp(
        (fc1): Conv2d(32, 256, kernel_size=(1, 1), stride=(1, 1))
        (dwconv): DWConv(
          (dwconv): Conv2d(256, 256, kernel_size=(3, 3), stride=(1, 1), padding=(1, 1), groups=256)
        )
        (act): GELU(approximate='none')
        (fc2): Conv2d(256, 32, kernel_size=(1, 1), stride=(1, 1))
        (drop): Dropout(p=0.0, inplace=False)
      )
    )
    (2): Block(
      (norm1): BatchNorm2d(32, eps=1e-05, momentum=0.1, affine=True, track_running_stats=True)
      (attn): Attention(
        (proj_1): Conv2d(32, 32, kernel_size=(1, 1), stride=(1, 1))
        (activation): GELU(approximate='none')
        (spatial_gating_unit): LKA(
          (conv0): Conv2d(32, 32, kernel_size=(5, 5), stride=(1, 1), padding=(2, 2), groups=32)
          (conv_spatial): MultiScaleBranch(
            (conv3x3): Conv2d(32, 32, kernel_size=(3, 3), stride=(1, 1), padding=(1, 1))
            (conv5x5): Conv2d(32, 32, kernel_size=(5, 5), stride=(1, 1), padding=(2, 2))
            (conv7x7): Conv2d(32, 32, kernel_size=(7, 7), stride=(1, 1), padding=(3, 3))
          )
          (conv1): Conv2d(96, 32, kernel_size=(1, 1), stride=(1, 1))
        )
        (proj_2): Conv2d(32, 32, kernel_size=(1, 1), stride=(1, 1))
      )
      (drop_path): Identity()
      (norm2): BatchNorm2d(32, eps=1e-05, momentum=0.1, affine=True, track_running_stats=True)
      (mlp): Mlp(
        (fc1): Conv2d(32, 256, kernel_size=(1, 1), stride=(1, 1))
        (dwconv): DWConv(
          (dwconv): Conv2d(256, 256, kernel_size=(3, 3), stride=(1, 1), padding=(1, 1), groups=256)
        )
        (act): GELU(approximate='none')
        (fc2): Conv2d(256, 32, kernel_size=(1, 1), stride=(1, 1))
        (drop): Dropout(p=0.0, inplace=False)
      )
    )
  )
  (norm1): LayerNorm((32,), eps=1e-06, elementwise_affine=True)
  (patch_embed2): OverlapPatchEmbed(
    (proj): Conv2d(32, 64, kernel_size=(3, 3), stride=(2, 2), padding=(1, 1))
    (norm): BatchNorm2d(64, eps=1e-05, momentum=0.1, affine=True, track_running_stats=True)
  )
  (block2): ModuleList(
    (0): Block(
      (norm1): BatchNorm2d(64, eps=1e-05, momentum=0.1, affine=True, track_running_stats=True)
      (attn): Attention(
        (proj_1): Conv2d(64, 64, kernel_size=(1, 1), stride=(1, 1))
        (activation): GELU(approximate='none')
        (spatial_gating_unit): LKA(
          (conv0): Conv2d(64, 64, kernel_size=(5, 5), stride=(1, 1), padding=(2, 2), groups=64)
          (conv_spatial): MultiScaleBranch(
            (conv3x3): Conv2d(64, 64, kernel_size=(3, 3), stride=(1, 1), padding=(1, 1))
            (conv5x5): Conv2d(64, 64, kernel_size=(5, 5), stride=(1, 1), padding=(2, 2))
            (conv7x7): Conv2d(64, 64, kernel_size=(7, 7), stride=(1, 1), padding=(3, 3))
          )
          (conv1): Conv2d(192, 64, kernel_size=(1, 1), stride=(1, 1))
        )
        (proj_2): Conv2d(64, 64, kernel_size=(1, 1), stride=(1, 1))
      )
      (drop_path): Identity()
      (norm2): BatchNorm2d(64, eps=1e-05, momentum=0.1, affine=True, track_running_stats=True)
      (mlp): Mlp(
        (fc1): Conv2d(64, 512, kernel_size=(1, 1), stride=(1, 1))
        (dwconv): DWConv(
          (dwconv): Conv2d(512, 512, kernel_size=(3, 3), stride=(1, 1), padding=(1, 1), groups=512)
        )
        (act): GELU(approximate='none')
        (fc2): Conv2d(512, 64, kernel_size=(1, 1), stride=(1, 1))
        (drop): Dropout(p=0.0, inplace=False)
      )
    )
    (1): Block(
      (norm1): BatchNorm2d(64, eps=1e-05, momentum=0.1, affine=True, track_running_stats=True)
      (attn): Attention(
        (proj_1): Conv2d(64, 64, kernel_size=(1, 1), stride=(1, 1))
        (activation): GELU(approximate='none')
        (spatial_gating_unit): LKA(
          (conv0): Conv2d(64, 64, kernel_size=(5, 5), stride=(1, 1), padding=(2, 2), groups=64)
          (conv_spatial): MultiScaleBranch(
            (conv3x3): Conv2d(64, 64, kernel_size=(3, 3), stride=(1, 1), padding=(1, 1))
            (conv5x5): Conv2d(64, 64, kernel_size=(5, 5), stride=(1, 1), padding=(2, 2))
            (conv7x7): Conv2d(64, 64, kernel_size=(7, 7), stride=(1, 1), padding=(3, 3))
          )
          (conv1): Conv2d(192, 64, kernel_size=(1, 1), stride=(1, 1))
        )
        (proj_2): Conv2d(64, 64, kernel_size=(1, 1), stride=(1, 1))
      )
      (drop_path): Identity()
      (norm2): BatchNorm2d(64, eps=1e-05, momentum=0.1, affine=True, track_running_stats=True)
      (mlp): Mlp(
        (fc1): Conv2d(64, 512, kernel_size=(1, 1), stride=(1, 1))
        (dwconv): DWConv(
          (dwconv): Conv2d(512, 512, kernel_size=(3, 3), stride=(1, 1), padding=(1, 1), groups=512)
        )
        (act): GELU(approximate='none')
        (fc2): Conv2d(512, 64, kernel_size=(1, 1), stride=(1, 1))
        (drop): Dropout(p=0.0, inplace=False)
      )
    )
    (2): Block(
      (norm1): BatchNorm2d(64, eps=1e-05, momentum=0.1, affine=True, track_running_stats=True)
      (attn): Attention(
        (proj_1): Conv2d(64, 64, kernel_size=(1, 1), stride=(1, 1))
        (activation): GELU(approximate='none')
        (spatial_gating_unit): LKA(
          (conv0): Conv2d(64, 64, kernel_size=(5, 5), stride=(1, 1), padding=(2, 2), groups=64)
          (conv_spatial): MultiScaleBranch(
            (conv3x3): Conv2d(64, 64, kernel_size=(3, 3), stride=(1, 1), padding=(1, 1))
            (conv5x5): Conv2d(64, 64, kernel_size=(5, 5), stride=(1, 1), padding=(2, 2))
            (conv7x7): Conv2d(64, 64, kernel_size=(7, 7), stride=(1, 1), padding=(3, 3))
          )
          (conv1): Conv2d(192, 64, kernel_size=(1, 1), stride=(1, 1))
        )
        (proj_2): Conv2d(64, 64, kernel_size=(1, 1), stride=(1, 1))
      )
      (drop_path): Identity()
      (norm2): BatchNorm2d(64, eps=1e-05, momentum=0.1, affine=True, track_running_stats=True)
      (mlp): Mlp(
        (fc1): Conv2d(64, 512, kernel_size=(1, 1), stride=(1, 1))
        (dwconv): DWConv(
          (dwconv): Conv2d(512, 512, kernel_size=(3, 3), stride=(1, 1), padding=(1, 1), groups=512)
        )
        (act): GELU(approximate='none')
        (fc2): Conv2d(512, 64, kernel_size=(1, 1), stride=(1, 1))
        (drop): Dropout(p=0.0, inplace=False)
      )
    )
  )
  (norm2): LayerNorm((64,), eps=1e-06, elementwise_affine=True)
  (patch_embed3): OverlapPatchEmbed(
    (proj): Conv2d(64, 160, kernel_size=(3, 3), stride=(2, 2), padding=(1, 1))
    (norm): BatchNorm2d(160, eps=1e-05, momentum=0.1, affine=True, track_running_stats=True)
  )
  (block3): ModuleList(
    (0): Block(
      (norm1): BatchNorm2d(160, eps=1e-05, momentum=0.1, affine=True, track_running_stats=True)
      (attn): Attention(
        (proj_1): Conv2d(160, 160, kernel_size=(1, 1), stride=(1, 1))
        (activation): GELU(approximate='none')
        (spatial_gating_unit): LKA(
          (conv0): Conv2d(160, 160, kernel_size=(5, 5), stride=(1, 1), padding=(2, 2), groups=160)
          (conv_spatial): MultiScaleBranch(
            (conv3x3): Conv2d(160, 160, kernel_size=(3, 3), stride=(1, 1), padding=(1, 1))
            (conv5x5): Conv2d(160, 160, kernel_size=(5, 5), stride=(1, 1), padding=(2, 2))
            (conv7x7): Conv2d(160, 160, kernel_size=(7, 7), stride=(1, 1), padding=(3, 3))
          )
          (conv1): Conv2d(480, 160, kernel_size=(1, 1), stride=(1, 1))
        )
        (proj_2): Conv2d(160, 160, kernel_size=(1, 1), stride=(1, 1))
      )
      (drop_path): Identity()
      (norm2): BatchNorm2d(160, eps=1e-05, momentum=0.1, affine=True, track_running_stats=True)
      (mlp): Mlp(
        (fc1): Conv2d(160, 640, kernel_size=(1, 1), stride=(1, 1))
        (dwconv): DWConv(
          (dwconv): Conv2d(640, 640, kernel_size=(3, 3), stride=(1, 1), padding=(1, 1), groups=640)
        )
        (act): GELU(approximate='none')
        (fc2): Conv2d(640, 160, kernel_size=(1, 1), stride=(1, 1))
        (drop): Dropout(p=0.0, inplace=False)
      )
    )
    (1): Block(
      (norm1): BatchNorm2d(160, eps=1e-05, momentum=0.1, affine=True, track_running_stats=True)
      (attn): Attention(
        (proj_1): Conv2d(160, 160, kernel_size=(1, 1), stride=(1, 1))
        (activation): GELU(approximate='none')
        (spatial_gating_unit): LKA(
          (conv0): Conv2d(160, 160, kernel_size=(5, 5), stride=(1, 1), padding=(2, 2), groups=160)
          (conv_spatial): MultiScaleBranch(
            (conv3x3): Conv2d(160, 160, kernel_size=(3, 3), stride=(1, 1), padding=(1, 1))
            (conv5x5): Conv2d(160, 160, kernel_size=(5, 5), stride=(1, 1), padding=(2, 2))
            (conv7x7): Conv2d(160, 160, kernel_size=(7, 7), stride=(1, 1), padding=(3, 3))
          )
          (conv1): Conv2d(480, 160, kernel_size=(1, 1), stride=(1, 1))
        )
        (proj_2): Conv2d(160, 160, kernel_size=(1, 1), stride=(1, 1))
      )
      (drop_path): Identity()
      (norm2): BatchNorm2d(160, eps=1e-05, momentum=0.1, affine=True, track_running_stats=True)
      (mlp): Mlp(
        (fc1): Conv2d(160, 640, kernel_size=(1, 1), stride=(1, 1))
        (dwconv): DWConv(
          (dwconv): Conv2d(640, 640, kernel_size=(3, 3), stride=(1, 1), padding=(1, 1), groups=640)
        )
        (act): GELU(approximate='none')
        (fc2): Conv2d(640, 160, kernel_size=(1, 1), stride=(1, 1))
        (drop): Dropout(p=0.0, inplace=False)
      )
    )
    (2): Block(
      (norm1): BatchNorm2d(160, eps=1e-05, momentum=0.1, affine=True, track_running_stats=True)
      (attn): Attention(
        (proj_1): Conv2d(160, 160, kernel_size=(1, 1), stride=(1, 1))
        (activation): GELU(approximate='none')
        (spatial_gating_unit): LKA(
          (conv0): Conv2d(160, 160, kernel_size=(5, 5), stride=(1, 1), padding=(2, 2), groups=160)
          (conv_spatial): MultiScaleBranch(
            (conv3x3): Conv2d(160, 160, kernel_size=(3, 3), stride=(1, 1), padding=(1, 1))
            (conv5x5): Conv2d(160, 160, kernel_size=(5, 5), stride=(1, 1), padding=(2, 2))
            (conv7x7): Conv2d(160, 160, kernel_size=(7, 7), stride=(1, 1), padding=(3, 3))
          )
          (conv1): Conv2d(480, 160, kernel_size=(1, 1), stride=(1, 1))
        )
        (proj_2): Conv2d(160, 160, kernel_size=(1, 1), stride=(1, 1))
      )
      (drop_path): Identity()
      (norm2): BatchNorm2d(160, eps=1e-05, momentum=0.1, affine=True, track_running_stats=True)
      (mlp): Mlp(
        (fc1): Conv2d(160, 640, kernel_size=(1, 1), stride=(1, 1))
        (dwconv): DWConv(
          (dwconv): Conv2d(640, 640, kernel_size=(3, 3), stride=(1, 1), padding=(1, 1), groups=640)
        )
        (act): GELU(approximate='none')
        (fc2): Conv2d(640, 160, kernel_size=(1, 1), stride=(1, 1))
        (drop): Dropout(p=0.0, inplace=False)
      )
    )
    (3): Block(
      (norm1): BatchNorm2d(160, eps=1e-05, momentum=0.1, affine=True, track_running_stats=True)
      (attn): Attention(
        (proj_1): Conv2d(160, 160, kernel_size=(1, 1), stride=(1, 1))
        (activation): GELU(approximate='none')
        (spatial_gating_unit): LKA(
          (conv0): Conv2d(160, 160, kernel_size=(5, 5), stride=(1, 1), padding=(2, 2), groups=160)
          (conv_spatial): MultiScaleBranch(
            (conv3x3): Conv2d(160, 160, kernel_size=(3, 3), stride=(1, 1), padding=(1, 1))
            (conv5x5): Conv2d(160, 160, kernel_size=(5, 5), stride=(1, 1), padding=(2, 2))
            (conv7x7): Conv2d(160, 160, kernel_size=(7, 7), stride=(1, 1), padding=(3, 3))
          )
          (conv1): Conv2d(480, 160, kernel_size=(1, 1), stride=(1, 1))
        )
        (proj_2): Conv2d(160, 160, kernel_size=(1, 1), stride=(1, 1))
      )
      (drop_path): Identity()
      (norm2): BatchNorm2d(160, eps=1e-05, momentum=0.1, affine=True, track_running_stats=True)
      (mlp): Mlp(
        (fc1): Conv2d(160, 640, kernel_size=(1, 1), stride=(1, 1))
        (dwconv): DWConv(
          (dwconv): Conv2d(640, 640, kernel_size=(3, 3), stride=(1, 1), padding=(1, 1), groups=640)
        )
        (act): GELU(approximate='none')
        (fc2): Conv2d(640, 160, kernel_size=(1, 1), stride=(1, 1))
        (drop): Dropout(p=0.0, inplace=False)
      )
    )
    (4): Block(
      (norm1): BatchNorm2d(160, eps=1e-05, momentum=0.1, affine=True, track_running_stats=True)
      (attn): Attention(
        (proj_1): Conv2d(160, 160, kernel_size=(1, 1), stride=(1, 1))
        (activation): GELU(approximate='none')
        (spatial_gating_unit): LKA(
          (conv0): Conv2d(160, 160, kernel_size=(5, 5), stride=(1, 1), padding=(2, 2), groups=160)
          (conv_spatial): MultiScaleBranch(
            (conv3x3): Conv2d(160, 160, kernel_size=(3, 3), stride=(1, 1), padding=(1, 1))
            (conv5x5): Conv2d(160, 160, kernel_size=(5, 5), stride=(1, 1), padding=(2, 2))
            (conv7x7): Conv2d(160, 160, kernel_size=(7, 7), stride=(1, 1), padding=(3, 3))
          )
          (conv1): Conv2d(480, 160, kernel_size=(1, 1), stride=(1, 1))
        )
        (proj_2): Conv2d(160, 160, kernel_size=(1, 1), stride=(1, 1))
      )
      (drop_path): Identity()
      (norm2): BatchNorm2d(160, eps=1e-05, momentum=0.1, affine=True, track_running_stats=True)
      (mlp): Mlp(
        (fc1): Conv2d(160, 640, kernel_size=(1, 1), stride=(1, 1))
        (dwconv): DWConv(
          (dwconv): Conv2d(640, 640, kernel_size=(3, 3), stride=(1, 1), padding=(1, 1), groups=640)
        )
        (act): GELU(approximate='none')
        (fc2): Conv2d(640, 160, kernel_size=(1, 1), stride=(1, 1))
        (drop): Dropout(p=0.0, inplace=False)
      )
    )
  )
  (norm3): LayerNorm((160,), eps=1e-06, elementwise_affine=True)
  (patch_embed4): OverlapPatchEmbed(
    (proj): Conv2d(160, 256, kernel_size=(3, 3), stride=(2, 2), padding=(1, 1))
    (norm): BatchNorm2d(256, eps=1e-05, momentum=0.1, affine=True, track_running_stats=True)
  )
  (block4): ModuleList(
    (0): Block(
      (norm1): BatchNorm2d(256, eps=1e-05, momentum=0.1, affine=True, track_running_stats=True)
      (attn): Attention(
        (proj_1): Conv2d(256, 256, kernel_size=(1, 1), stride=(1, 1))
        (activation): GELU(approximate='none')
        (spatial_gating_unit): LKA(
          (conv0): Conv2d(256, 256, kernel_size=(5, 5), stride=(1, 1), padding=(2, 2), groups=256)
          (conv_spatial): MultiScaleBranch(
            (conv3x3): Conv2d(256, 256, kernel_size=(3, 3), stride=(1, 1), padding=(1, 1))
            (conv5x5): Conv2d(256, 256, kernel_size=(5, 5), stride=(1, 1), padding=(2, 2))
            (conv7x7): Conv2d(256, 256, kernel_size=(7, 7), stride=(1, 1), padding=(3, 3))
          )
          (conv1): Conv2d(768, 256, kernel_size=(1, 1), stride=(1, 1))
        )
        (proj_2): Conv2d(256, 256, kernel_size=(1, 1), stride=(1, 1))
      )
      (drop_path): Identity()
      (norm2): BatchNorm2d(256, eps=1e-05, momentum=0.1, affine=True, track_running_stats=True)
      (mlp): Mlp(
        (fc1): Conv2d(256, 1024, kernel_size=(1, 1), stride=(1, 1))
        (dwconv): DWConv(
          (dwconv): Conv2d(1024, 1024, kernel_size=(3, 3), stride=(1, 1), padding=(1, 1), groups=1024)
        )
        (act): GELU(approximate='none')
        (fc2): Conv2d(1024, 256, kernel_size=(1, 1), stride=(1, 1))
        (drop): Dropout(p=0.0, inplace=False)
      )
    )
    (1): Block(
      (norm1): BatchNorm2d(256, eps=1e-05, momentum=0.1, affine=True, track_running_stats=True)
      (attn): Attention(
        (proj_1): Conv2d(256, 256, kernel_size=(1, 1), stride=(1, 1))
        (activation): GELU(approximate='none')
        (spatial_gating_unit): LKA(
          (conv0): Conv2d(256, 256, kernel_size=(5, 5), stride=(1, 1), padding=(2, 2), groups=256)
          (conv_spatial): MultiScaleBranch(
            (conv3x3): Conv2d(256, 256, kernel_size=(3, 3), stride=(1, 1), padding=(1, 1))
            (conv5x5): Conv2d(256, 256, kernel_size=(5, 5), stride=(1, 1), padding=(2, 2))
            (conv7x7): Conv2d(256, 256, kernel_size=(7, 7), stride=(1, 1), padding=(3, 3))
          )
          (conv1): Conv2d(768, 256, kernel_size=(1, 1), stride=(1, 1))
        )
        (proj_2): Conv2d(256, 256, kernel_size=(1, 1), stride=(1, 1))
      )
      (drop_path): Identity()
      (norm2): BatchNorm2d(256, eps=1e-05, momentum=0.1, affine=True, track_running_stats=True)
      (mlp): Mlp(
        (fc1): Conv2d(256, 1024, kernel_size=(1, 1), stride=(1, 1))
        (dwconv): DWConv(
          (dwconv): Conv2d(1024, 1024, kernel_size=(3, 3), stride=(1, 1), padding=(1, 1), groups=1024)
        )
        (act): GELU(approximate='none')
        (fc2): Conv2d(1024, 256, kernel_size=(1, 1), stride=(1, 1))
        (drop): Dropout(p=0.0, inplace=False)
      )
    )
  )
  (norm4): LayerNorm((256,), eps=1e-06, elementwise_affine=True)
  (head): Linear(in_features=256, out_features=1000, bias=True)
)
Number of model parameters: 27357320
Epoch: [0][0/196]	Time 15.083 (15.083)	Data 12.581 (12.581)	Loss 6.8885 (6.8885)	Prec@1 0.391 (0.391)	Prec@5 1.953 (1.953)
Epoch: [0][10/196]	Time 2.400 (3.568)	Data 0.000 (1.144)	Loss 5.9915 (6.4520)	Prec@1 4.688 (2.912)	Prec@5 16.016 (12.358)
